…
 nn.Linear(32, 10)\n\n    def forward(self, x):\n        x = self.flatten(x)\n        x = torch.relu(self.hidden_layer1(x))\n        x = torch.relu(self.hidden_layer2(x))\n        x = self.output_layer(x)\n        return x\n\nnet = MLP()\nprint(torchinfo.summary(net, input_size=(1, 3, 32, 32)))\n\n==========================================================================================\nLayer (type:depth-idx)                   Output Shape              Param #\n==========================================================================================\nMLP                                      [1, 10]                   --\n├─Flatten: 1-1                           [1, 3072]                 --\n├─Linear: 1-2                            [1, 64]                   196,672\n├─Linear: 1-3                            [1, 32]                   2,080\n├─Linear: 1-4                            [1, 10]                   330\n==========================================================================================\nTotal params: 199,082\nTrainable params: 199,082\nNon-trainable params: 0\nTotal mult-adds (Units.MEGABYTES): 0.20\n==========================================================================================\nInput size (MB): 0.01\nForward/backward pass size (MB): 0.00\nParams size (MB): 0.80\nEstimated To
…
layer = nn.Linear(16 * 8 * 8 , 10)\n\n    def forward(self, x):\n        x = torch.relu(self.conv1(x))\n        x = torch.relu(self.conv2(x))\n        x = self.flatten(x)\n        x = self.output_layer(x)\n        return x\n\ncnn = CNN()\nprint(torchinfo.summary(cnn, input_size=(1, 3, 32, 32)))\n\n==========================================================================================\nLayer (type:depth-idx)                   Output Shape              Param #\n==========================================================================================\nCNN                                      [1, 10]                   --\n├─Conv2d: 1-1                            [1, 16, 16, 16]           2,368\n├─Conv2d: 1-2                            [1, 16, 8, 8]             2,320\n├─Flatten: 1-3                           [1, 1024]                 --\n├─Linear: 1-4                            [1, 10]                   10,250\n==========================================================================================\nTotal params: 14,938\nTrainable params: 14,938\nNon-trainable params: 0\nTotal mult-adds (Units.MEGABYTES): 0.76\n==========================================================================================\nInput size (MB): 0.01\nForward/backward pass size (MB): 0.04\nParams size (MB): 0.06\nEstimated Tota
…
easily load AlexNet via torchvision.\n\nimport torch\nimport torchvision.models as models\nimport torchinfo\n\nalexnet = models.alexnet()\nx = torch.zeros(1, 3, 224, 224, dtype=torch.float, requires_grad=False)\nyhat = alexnet(x)\n\nprint(torchinfo.summary(alexnet, input_size=(1, 3, 224, 224)))\n\n==========================================================================================\nLayer (type:depth-idx)                   Output Shape              Param #\n==========================================================================================\nAlexNet                                  [1, 1000]                 --\n├─Sequential: 1-1                        [1, 256, 6, 6]            --\n│    └─Conv2d: 2-1                       [1, 64, 55, 55]           23,296\n│    └─ReLU: 2-2                         [1, 64, 55, 55]           --\n│    └─MaxPool2d: 2-3                    [1, 64, 27, 27]           --\n│    └─Conv2d: 2-4                       [1, 192, 27, 27]          307,392\n│    └─ReLU: 2-5                         [1, 192, 27, 27]          --\n│    └─MaxPool2d: 2-6                    [1, 192, 13, 13]          --\n│    └─Conv2d: 2-7                       [1, 384, 13, 13]          663,936\n│    └─ReLU: 2-8                         [1, 384, 13, 13]          --\n│    └─Conv2d: 2-9                       [1, 256, 13, 13]          884,992\n│    └─ReLU: 2-10                        [1, 256, 13, 13]          --\n│    └─Conv2d: 2-11                      [1, 256, 13, 13]          590,080\n│    └─ReLU: 2-12                        [1, 256, 13, 13]          --\n│    └─MaxPool2d: 2-13                   [1, 256, 6, 6]            --\n├─AdaptiveAvgPool2d: 1-2                 [1, 256, 6, 6]            --\n├─Sequential: 1-3                        [1, 1000]                 --\n│    └─Dropout: 2-14                     [1, 9216]                 --\n│    └─Linear: 2-15                      [1, 4096]                 37,752,832\n│    └─ReLU: 2-16                        [1, 4096]                 --\n│    └─Dropout: 2-17                     [1, 4096]                 --\n│    └─Linear: 2-18                      [1, 4096]                 16,781,312\n│    └─ReLU: 2-19                        [1, 4096]                 --\n│    └─Linear: 2-20                      [1, 1000]                 4,097,000\n==========================================================================================\nTotal params: 61,100,840\nTrainable params: 61,100,840\nNon-trainable params: 0\nTotal mult-adds (Units.MEGABYTES): 714.68\n==========================================================================================\nInput size (MB): 0.60\nForward/backward pass size (MB): 3.95\nParams size (MB): 244.40\nEs
…
